OLD/api/data.pth (torch, 5418 bytes, 6 tensors)

l1.weight f4 [8, 54]
0	0xbe28b59e	-0.16475531
1	0xbf0d0fd4	-0.55102277
2	0xbb356d63	-0.0027683608
3	0x3f08078d	0.5313652
4	0x3ed521e7	0.41627428
5	0x3f1419e5	0.5785201
6	0x3eabff30	0.3359313
7	0x3b9bf0d5	0.004758934
8	0x3d2f1c43	0.04275156
9	0x3e1759f1	0.14780404
10	0x3ef5b7b6	0.47991723
11	0xbecf528a	-0.4049266
12	0x3eaf6d61	0.34263137
13	0xbe8ee9d0	-0.2791276
14	0xbe829aa2	-0.255086
15	0xbeaf1876	-0.3419835
16	0x3f1c1293	0.6096584
17	0x3ed34137	0.41260692
18	0x3ed457d3	0.41473255
19	0x3f4ee4af	0.80817693
20	0xbe6ab793	-0.2292159
21	0x3f379502	0.7171174
22	0x3f2d9548	0.6780591
23	0x3e29f6f3	0.1659811
24	0x3e5d99b6	0.21640667
25	0x3f03e647	0.5152325
26	0x3f245044	0.64184976
27	0xbf086eda	-0.53294146
28	0x3ed24fc2	0.41076475
29	0xbf0509d9	-0.5196815
30	0x3f058d35	0.5216859
31	0xbefdcbf0	-0.49569654
32	0x3daaa419	0.083320804
33	0x3e227837	0.15866171
34	0xbe7e8261	-0.24854423
35	0xbe920018	-0.28515697
36	0x3ef02745	0.4690496
37	0xbc98e531	-0.018663974
38	0x3e045718	0.12923849
39	0x3e446881	0.1918049
40	0x3eb43c75	0.35202375
41	0x3f375317	0.7161116
42	0xbeae6d73	-0.34067878
43	0xbe162b7b	-0.14665024
44	0x3d64c51f	0.05585205
45	0xbe794a99	-0.24344863
46	0xbf7358d1	-0.950574
47	0xbe953cd8	-0.29147983
48	0x3f0e5393	0.55596274
49	0x3f233ffa	0.63769495
50	0xbed9b3c6	-0.4251997
51	0x3f0c3f21	0.5478383
52	0x3e901be9	0.28146294
53	0x3ebbb7a6	0.3666355
54	0xbe58f3f3	-0.21186809
55	0x3f13a622	0.57675374
56	0x3eaa0622	0.33207804
57	0x3e89d4b1	0.26920083
58	0x3e7a278e	0.24429151
59	0xbef900c4	-0.48633397
60	0x3e2c3ef4	0.1682089
61	0x3d8d7099	0.06906242
62	0x3e94df0c	0.2907642
63	0xbd0c3eca	-0.034239568
64	0x3ea7d3ee	0.32778877
65	0x3f2ee626	0.6831993
66	0x3f0559a9	0.52089936
67	0x3f2adb78	0.6674113
68	0x3f20935d	0.6272486
69	0x3f1cd2a0	0.6125889
70	0x3e9e3209	0.3089755
71	0xbefa26eb	-0.48857817
72	0xbe9ce613	-0.30644283
73	0x3f4d2665	0.8013671
74	0xbe25b037	-0.16180502
75	0x3f4d45ed	0.80184823
76	0x3f36fad5	0.7147649
77	0x3f373017	0.71557754
78	0x3efdce89	0.49571636
79	0x3f0427b0	0.5162306
80	0xbe957eb6	-0.29198235
81	0x3f676f14	0.90403867
82	0xbe1614dd	-0.14656396
83	0x3f196a52	0.59927857
84	0xbe9e79af	-0.30952212
85	0x3f24c05a	0.64356005
86	0xbe38d2be	-0.18049142
87	0x3ea4592e	0.3209929
88	0x3f642e38	0.89133024
89	0x3f0429f7	0.51626533
90	0xbcbc0ecb	-0.022956273
91	0x3ea65f25	0.32494465
92	0x3d499a40	0.04921937
93	0x3e781a70	0.24228835
94	0xbe747efe	-0.23876569
95	0xbeb8877c	-0.36040866
96	0x3ee47612	0.4462133
97	0x3f2dd1ad	0.67898065
98	0x3f21c241	0.6318703
99	0x3f372b7f	0.71550745
100	0xbf1855e6	-0.5950607
101	0xbe1cd2c4	-0.15314776
102	0x3e97d4c8	0.29654527
103	0xbe94e38f	-0.29079863
104	0x3f18ce50	0.5968981
105	0xbe671021	-0.22564746
106	0x3df72c17	0.12068956
107	0x3dfe4585	0.124156035
108	0x3ec38f7d	0.3819541
109	0x3f2cb703	0.67466754
110	0xbd1d2880	-0.038368702
111	0x3eae59b9	0.34052828
112	0x3e20d4ed	0.15706225
113	0xbeff6df4	-0.49888575
114	0x3df8bc98	0.121453464
115	0xbc84ee72	-0.01622698
116	0x3e134e31	0.14385296
117	0xbe0d66eb	-0.13808791
118	0x3e902f69	0.2816117
119	0x3f324ddd	0.6965006
120	0x3ea98536	0.33109444
121	0x3f331646	0.6995586
122	0x3efcbcbe	0.4936275
123	0x3eba3106	0.36365527
124	0x3ebc8f7d	0.36828223
125	0xbf049f56	-0.5180563
126	0x3c9001a8	0.017578915
127	0x3ec238b6	0.37933892
128	0x3eb2636c	0.34841478
129	0x3eadba21	0.33931068
130	0x3f0f3b38	0.55949736
131	0x3f47add6	0.7799963
132	0x3e9df0c4	0.30847752
133	0x3eb14f60	0.3463087
134	0xbd85ddb0	-0.06536424
135	0x3f173ad8	0.59074163
136	0xbe332380	-0.17494011
137	0x3f062ffc	0.5241697
138	0xbe68429e	-0.22681662
139	0x3f122f9e	0.5710391
140	0x3e0090fe	0.1255531
141	0xbe1071ea	-0.14105955
142	0x3f3ffdd9	0.74996716
143	0x3ef7d5e6	0.4840538
144	0xbe512568	-0.20424426
145	0xbdb47eaf	-0.088132255
146	0xbd2b1811	-0.041771
147	0x3cbb9959	0.02290027
148	0xbe718d58	-0.23589075
149	0xbe56e679	-0.20986356
150	0x3ef31ce6	0.47482985
151	0x3efa73f2	0.48916584
152	0x3eb19092	0.3468061
153	0x3f1e1733	0.6175415
154	0x3ee9b26a	0.45643932
155	0x3e705de6	0.2347332
156	0x3e8f12fe	0.27944177
157	0xbe6c583c	-0.23080534
158	0x3f1338ff	0.57508844
159	0xbe0e0777	-0.13870035
160	0xbc81d333	-0.015847778
161	0x3d9d663c	0.07685515
162	0x3f2228bd	0.6334341
163	0x3ec25f02	0.3796311
164	0x3f1f9459	0.62335736
165	0xbd8d98d4	-0.06913915
166	0x3d9121ac	0.070865005
167	0x3e8b953f	0.27262303
168	0x3f197694	0.5994656
169	0x3f008ead	0.50217706
170	0x3f12c9e2	0.573393
171	0x3f07831d	0.5293444
172	0xbe66860c	-0.22512072
173	0xbd1d81e9	-0.03845397
174	0xb959320d	-0.00020713378
175	0x3e623754	0.22091419
176	0xbd8ff5ab	-0.07029279
177	0xbdb0f944	-0.08641294
178	0xbe9cc9dd	-0.3062276
179	0x3e6c4b0f	0.23075508
180	0xbeddc594	-0.43314803
181	0xbf09710e	-0.5368813
182	0x3ebe4101	0.3715897
183	0xbee05249	-0.4381278
184	0xbf03794f	-0.5135698
185	0xbe63396d	-0.22189875
186	0x3eb58a96	0.35457295
187	0xbd5d05e8	-0.05396071
188	0xbeae7057	-0.34070083
189	0xbd05ba83	-0.032648575
190	0x3cc90251	0.024537237
191	0xbdcafcae	-0.09911476
192	0x3da07bad	0.07836089
193	0x3b6ef2a3	0.003646054
194	0x3f015b7b	0.50530213
195	0x3f00061a	0.5000931
196	0x3d89c301	0.06726647
197	0xbe27b3e3	-0.16377215
198	0xbe10f124	-0.14154488
199	0x3f41ecf2	0.75752175
200	0x3f1dd25c	0.6164911
201	0x3f25579a	0.64586794
202	0x3c58dc55	0.013236125
203	0xbf1f35dd	-0.62191564
204	0x3ca73f7e	0.020416018
205	0x3c515e62	0.01277885
206	0x3f2a6ce2	0.6657239
207	0x3e251fc5	0.161254
208	0x3f694dd8	0.91134405
209	0x3ee83549	0.45353153
210	0x3d0d62c7	0.03451803
211	0xbf122a2d	-0.57095605
212	0xbd8fa92d	-0.070146896
213	0xbee2f2c9	-0.44325855
214	0x3ef36f10	0.4754567
215	0x3f087c32	0.53314507
216	0xbd841c24	-0.0645068
217	0xbf04182b	-0.5159938
218	0xbe2f5a8e	-0.17124388
219	0xbe52431d	-0.20533414
220	0x3e98b648	0.2982657
221	0x3f3ff4b8	0.74982786
222	0x3dbaa01d	0.091125704
223	0x3d8cbb87	0.068717055
224	0xbe5881af	-0.2114322
225	0x3d8c5c83	0.06853583
226	0xbe1dc83f	-0.15408419
227	0xbe8cc0b1	-0.27490762
228	0x3eb5ca71	0.35506013
229	0xbdef60dc	-0.11688396
230	0xbc373ca5	-0.011183892
231	0xbe822613	-0.25419673
232	0xbe7f8e28	-0.24956572
233	0x3f469015	0.775636
234	0x3ee6b1d5	0.4505755
235	0xbe5b5fc5	-0.21423252
236	0xbd410bec	-0.04713051
237	0xbe55e384	-0.20887572
238	0xbe148113	-0.14502363
239	0x3dd71537	0.10502093
240	0xbd90bf72	-0.07067765
241	0xbdf16c64	-0.11788252
242	0x3ef0d3e8	0.47036672
243	0xbed3e0d0	-0.41382456
244	0x3e6affcb	0.2294914
245	0xbe92a35c	-0.28640258
246	0x3f0885e5	0.53329307
247	0xbe453d2a	-0.19261613
248	0xbda81ca9	-0.082085915
249	0xbd2b47c3	-0.041816484
250	0xbe573267	-0.2101532
251	0xbdcc3ac6	-0.09972148
252	0x3ecc6e65	0.39927974
253	0xbe61849d	-0.22023244
254	0x3cc7f38b	0.024408123
255	0xbbcb7e35	-0.0062101134

l1.bias f4 [8]
0	0x3f64c677	0.89365333
1	0x3efa4404	0.48880017
2	0x3f42ac36	0.76044023
3	0x3f2edef8	0.68308973
4	0x3f14f3e8	0.5818467
5	0x3f2547af	0.64562505
6	0x3f2096b6	0.62729967
7	0x3f3a28d1	0.7271853

l2.weight f4 [8, 8]
0	0xbe1cc49b	-0.15309374
1	0x3fb52935	1.41532
2	0x3f6fe0d2	0.93702424
3	0x3f8e3d5f	1.1112479
4	0xbeb13ffc	-0.3461913
5	0x3f9bbada	1.2166398
6	0xbf4186d5	-0.7559636
7	0x3f629a84	0.8851702
8	0x3eaadc6b	0.3337129
9	0x3e4caf7e	0.1998882
10	0x3f185e5a	0.5951897
11	0x3f3b7403	0.73223895
12	0xbf16bc62	-0.588812
13	0x3f2b62b8	0.6694751
14	0x3eb1c063	0.34717092
15	0xbf93a4e6	-1.1534698
16	0xbf89f9f4	-1.0779405
17	0x3e9d6a3d	0.30745116
18	0x3f5f6dd2	0.8727695
19	0x3de191a0	0.11014104
20	0xbf3d3015	-0.7390149
21	0x3ebe400a	0.37158233
22	0x3ecb206f	0.39673182
23	0x3fa7d8df	1.3113059
24	0x3e1dd232	0.15412214
25	0x3ea5b899	0.323674
26	0xbe606163	-0.2191215
27	0xbe8021ce	-0.2502579
28	0xbe4e10e2	-0.20123628
29	0xbeb4d380	-0.35317612
30	0xbe5ae8cc	-0.21377867
31	0xbe43462c	-0.19069737
32	0x3fb5e5f9	1.4210807
33	0xbf657f21	-0.8964711
34	0xbc6eefb3	-0.014583516
35	0xbefccff4	-0.49377406
36	0x3f900201	1.1250612
37	0xbece8085	-0.40332428
38	0x3f927343	1.1441425
39	0x3fa8e06f	1.3193492
40	0x3f4f49ed	0.80972177
41	0x3f9d87d2	1.2307074
42	0x3f857f39	1.042945
43	0xbe0b4f84	-0.13604552
44	0xbe21402b	-0.15747134
45	0xbe1bdcd4	-0.15220958
46	0x3fa51d46	1.2899559
47	0xbf841ada	-1.0320694
48	0x3f1d5591	0.6145869
49	0xbf925d66	-1.1434753
50	0xbe82507d	-0.25452033
51	0x3f9146c7	1.1349725
52	0x3f23b40b	0.639466
53	0x3efde66b	0.49589857
54	0xbf09a717	-0.53770584
55	0x3f6af71f	0.91783327
56	0xbe813116	-0.25232762
57	0x3e787944	0.24265009
58	0xbeb01adb	-0.3439549
59	0x3e1f069b	0.15529864
60	0x3e09d18c	0.13458842
61	0x3d442c30	0.047893703
62	0x3e0637d7	0.13107239
63	0xbe8ea5fc	-0.2786101

l2.bias f4 [8]
0	0x3f3ef5d0	0.7459383
1	0x3f1d4883	0.6143877
2	0xbe2399ac	-0.1597659
3	0xbddebd94	-0.10876003
4	0x3f479d96	0.7797483
5	0x3e49f653	0.19722871
6	0x3f2f23c8	0.6841397
7	0xbeac2aa8	-0.33626294

l3.weight f4 [7, 8]
0	0xbe1cef5a	-0.1532568
1	0x3d90fea3	0.07079818
2	0x3e98bb51	0.2983041
3	0xbdb6853c	-0.08912131
4	0xbfb1acf3	-1.3880905
5	0x3f16847a	0.58795893
6	0xbfb2662a	-1.3937428
7	0xbe0756fe	-0.13216779
8	0x3efb4b09	0.49080685
9	0xbea2fa21	-0.31831458
10	0x3f2a77ba	0.6658894
11	0x3e371f42	0.17883018
12	0xbf927a42	-1.144356
13	0xbf04364a	-0.5164534
14	0xbf930090	-1.1484547
15	0x3dd8a179	0.105776735
16	0xbe36117a	-0.17780104
17	0xbf2069ce	-0.62661445
18	0xbfe33a5f	-1.7752188
19	0xbcbcb6e0	-0.02303642
20	0x3ec59437	0.3858964
21	0xbf955841	-1.1667558
22	0x3f4054af	0.75129217
23	0x3d5f563b	0.054525595
24	0xbecffd29	-0.40622833
25	0x3eab5c44	0.3346883
26	0xbfc0f24e	-1.5073946
27	0xbe590794	-0.21194297
28	0x3d7baa0b	0.061441462
29	0x3f5390a1	0.8264256
30	0xbfb30179	-1.3984824
31	0x3e27b732	0.16378477
32	0xbfc04838	-1.502204
33	0xbf44a9ea	-0.7682177
34	0xbe9c4149	-0.3051856
35	0x3e23f09e	0.16009757
36	0x3f21b0de	0.631605
37	0x3e6c2092	0.230593
38	0xbe84383c	-0.25824153
39	0x3e5381c8	0.20654976
40	0x3f07b4d2	0.53010285
41	0x3ee3503b	0.44397148
42	0xbfce5947	-1.6120995
43	0x3e8e4e97	0.27794334
44	0xbf8117e1	-1.0085412
45	0xbee1ec17	-0.44125435
46	0x3e15e304	0.14637381
47	0xbd3d7ec6	-0.04626348
48	0x3ec0ead3	0.37679157
49	0x3e5ce4a6	0.21571597
50	0x3eb152c4	0.34633458
51	0x3e8f2211	0.27955678
52	0xbf15b5a5	-0.5848029
53	0xc002110c	-2.0322905
54	0x3e6b1baf	0.22959779
55	0xbded86ce	-0.115979776

l3.bias f4 [7]
0	0xbeb0e7bd	-0.34551802
1	0xbeafb765	-0.34319606
2	0x3e9af80d	0.30267373
3	0x3ea5c9f2	0.32380635
4	0x3db9cc88	0.09072214
5	0xbe00e404	-0.12586981
6	0xbd58b3cc	-0.052905843
